Model: "sequential"
_________________________________________________________________
Layer (type)                 Output Shape              Param #   
=================================================================
embedding (Embedding)        (None, 1703, 50)          332900    
_________________________________________________________________
conv1d (Conv1D)              (None, 1703, 256)         13056     
_________________________________________________________________
global_max_pooling1d (Global (None, 256)               0         
_________________________________________________________________
dense (Dense)                (None, 128)               32896     
_________________________________________________________________
dropout (Dropout)            (None, 128)               0         
_________________________________________________________________
dense_1 (Dense)              (None, 8)                 1032      
=================================================================
Total params: 379,884
Trainable params: 379,884
Non-trainable params: 0
_________________________________________________________________
